colabdesign/af/weights/template_dgram_head.npy (npy, 99968 bytes, 1 tensors)

array f4 [5, 128, 39]
00000000: 3d9f 2d3c 739a 0cbb 00fd 723b c2f0 ab3b
00000010: c8c7 253c 7ab6 b13c 5ff9 1c3c 20f0 8abc
00000020: e5c1 8ebc b09e 633b 3530 6d3c ada7 cc3c
00000030: 8ad8 b53c ed48 b53c 609e 233c 9b09 42bc
00000040: a4b8 8c3c e518 3e3d 989f 5b3d c50a 393d
00000050: 005c 063d 472d 3f3c 10ab dfbb 44e7 dabc
00000060: 1507 2dbd a8e1 61bd 08ea 63bd 1e62 62bd
00000070: 2a07 88bd 0caf 6cbd f685 68bd b5c0 2abd
00000080: b323 15bd 9b8a 1ebd d37d 35bd 90d4 21bd
00000090: 6394 23bd bf84 01bd 6393 ccbc c8e4 8abb
000000a0: 6a28 253a 0bdc 97bb 9b58 33bc d73f d8b9
000000b0: 9587 1c3c b48b a6ba f346 02bc 5925 8dbb
000000c0: 1d78 a43a 3e5c f43a 50bc a6bb eb76 c2bb
000000d0: 37a9 84bb e8de 0dbc e872 89bb 4aca 283b
000000e0: 766d 233c 171b 763c a17c 843c edc2 423c
000000f0: 1de2 be3b d1a3 873b c931 2c3b 7e31 ff3a
00000100: 03a3 c93b b82e c93b e510 d23b d8fb 2dbb
00000110: af65 5bba 1855 0fbb 869f 07bb baef e6bb
00000120: a6d1 b1bb 7157 84bb cd12 e3bb 09c8 31bc
00000130: 6f18 31bc ea0b 4dbc 9fb7 e8bc 5967 18bd
00000140: 3971 15bd c1ad d2bc 444a 81bc a33a 7dbc
00000150: 51ab dfbc 0477 79bb f138 d03b f2c0 203c
00000160: 129c 86ba 5f35 9e3a ebc7 03bc d3af acbb
00000170: 6684 1fbc c28a 143c a6f4 fc3b 610c 6939
00000180: 8fa4 83bb 0164 b8bb ac3f 883b c118 c23b
00000190: 41db 2a3b 2bb3 18ba 7179 413b 101b 3b3b
000001a0: 853d 4d3c f405 383c 2f08 333c f9f3 7c3b
000001b0: af4c 39bc 4fd0 94bc acbf 8d38 d516 ad3c
000001c0: 2c04 fd3c c388 143d 049e fe3c 1ba0 1f3d
000001d0: 1028 e33c 0910 21bc 82c2 0cbc 1e9e a03b
000001e0: 4599 95bb 7bde 0ebc 5e0a 86bc 0d66 18bc
000001f0: 85b4 b5bb 946a b1bb d782 82ba 6000 313a
00000200: 5fd9 e3ba 2dbb 68bb f31f 413b c64c f13b
00000210: eef1 593c 7a2a eb3b 4ed0 213c 29a7 0c3c
00000220: f0cd 0c3c a3de 363c 8021 383c 3087 393c
00000230: b154 173c ee81 823b 132d 3c3b 51a9 cebb
00000240: 322c 9fbb e9ea bbbb 24cd f7bb 36e4 dabb
00000250: 66e1 d6ba b237 8dbb df93 a0ba 917b 55bc
00000260: 91fd dc3a 2df7 acbb 8a89 31bc e4b6 9abc
00000270: f5ec d5bc e63e 8cbc 61a4 ebbb 3695 d13c
00000280: a41a 373d 5897 e73c 2ac6 bc3c 65a2 993c
00000290: 8893 5e3b 1c57 2fbc 6cf3 cf3a b6e1 1e3c
000002a0: f40b 863c 71aa 5d3c 0ab9 6f3c d428 153c
000002b0: f794 2f3c 1c68 de3b ffd8 97bb 1a93 50bc
000002c0: 73fc e7bc 05ef 10bd c774 0bbd 3c7b e4bc
000002d0: 23ec b5bc a8cc 9ebc b3b8 d9bb c3b2 25bc
000002e0: 8d2a 6bbc 10ba 4ebc 4247 6abc 0f0b 7abc
000002f0: 3ec0 1ebb 0cf1 bc3a aac6 023c 576b 823c
00000300: ecd0 6a3c 8af0 943c 5c33 4a3b e034 b13c
00000310: a10f d13c b287 163c 1532 2b3c 3bcc 963c
00000320: c174 b63b a898 f73a e6de 5f3b cfb7 1dbc
00000330: 2276 a93b e063 543b 4f2d 063c 68ae d8bb
00000340: e720 aaba 8fa4 693c cea4 0a3d 4d2a 0c3c
00000350: 172b 07bc bf8f 72bc cc55 bfbc a50b 10bd
00000360: 38c3 15bd e752 c8bc acc2 bbbc 192f dcbc
00000370: 3459 88bc 2673 30bb 0231 993b 35f6 813a
00000380: 2eaf 823b 5f77 b83b aa5b bb3b 96fb b03b
00000390: fa5f 2abb 772d 883a 97e1 4a3c a25b ba3b
000003a0: 4104 8dbb 9cfb 14bb 2749 c53c 1302 85bc
000003b0: d2f9 d4bc 691b 1fbc dbec c0bb 172f 97bb
000003c0: 1df7 7ebb a0ec 17bb eedc c5bb d91f 0fbc
000003d0: 6039 29bc d258 beb9 cf23 0abc 3a68 a6bc
000003e0: fc14 8ebc 65f1 92ba 41e9 103c b44f 8f3c
000003f0: 7136 ab3c 3dec a63c b031 653c fe02 8b3b
0.010597047 -0.0021454364 0.003707707 0.0052472064 0.010118432 0.021693457 0.009580939 -0.016960204
-0.01742644 0.0034732036 0.0144768255 0.024982298 0.02219798 0.0221295 0.00998649 -0.01184311
0.017177887 0.04641046 0.053618997 0.045176286 0.03280258 0.01166851 -0.006825812 -0.026721604
-0.042243082 -0.055146843 -0.05564311 -0.055269353 -0.066419914 -0.057784125 -0.05676838 -0.041687686
-0.036411 -0.038706403 -0.04430945 -0.039509356 -0.039936434 -0.031620737 -0.024972623 -0.0042386986
0.00063002727 -0.0046343855 -0.010946418 -0.00041246295 0.00955381 -0.001270643 -0.007951486 -0.0043074307
0.0012548004 0.0018643213 -0.0050883666 -0.0059345863 -0.0040484923 -0.008659102 -0.004194606 0.002575534
0.009974828 0.015021107 0.016172709 0.011887294 0.0058252946 0.0041394015 0.0026274791 0.0019469706
0.0061534657 0.0061396025 0.0064107054 -0.0026547816 -0.0008369339 -0.0021870788 -0.0020694449 -0.0070476206
-0.0054266034 -0.004038744 -0.0069297315 -0.010850915 -0.010809048 -0.012515048 -0.02840787 -0.037207935
-0.03648493 -0.025717618 -0.015782483 -0.015455875 -0.02730337 -0.0038065324 0.006354444 0.009811627
-0.0010269901 0.0012070349 -0.00804327 -0.0052699833 -0.009736156 0.009066286 0.007719594 0.00022225223
-0.0040174196 -0.005627156 0.004157981 0.005923361 0.0026070627 -0.0005825038 0.0029521848 0.0028550066
0.012526874 0.011231888 0.010927244 0.0038597567 -0.011309787 -0.018165736 6.7591056e-05 0.021129051
0.030885778 0.03626324 0.031081207 0.038971048 0.027729064 -0.009830483 -0.008591296 0.0049016615
-0.0045653903 -0.008720036 -0.016362365 -0.009301675 -0.0055452012 -0.0054143164 -0.0009957206 0.000675207
-0.0017383507 -0.0035511956 0.0029468506 0.0073638884 0.013302309 0.0071766945 0.009876324 0.008584776
0.008594021 0.011161479 0.011238456 0.011323735 0.009236501 0.003982774 0.002871339 -0.006306805
-0.0048575634 -0.0057347906 -0.0075622965 -0.006680037 -0.0016394078 -0.004309618 -0.00122511 -0.013029949
0.0016860237 -0.005278489 -0.0108360145 -0.018886037 -0.026113966 -0.017119836 -0.0071912264 0.025583845
0.04470314 0.028270409 0.02304371 0.018754194 0.0033962447 -0.010701921 0.0015865392 0.009697368
0.016363122 0.013529406 0.014631519 0.009103972 0.010716668 0.006787313 -0.0046340222 -0.012730384
-0.02831862 -0.035384197 -0.034046914 -0.027890794 -0.022207325 -0.019384697 -0.0066443323 -0.010113421
-0.014353407 -0.012617603 -0.014299216 -0.015261426 -0.0024223472 0.0014415099 0.0079819355 0.015920324
0.014332037 0.018181104 0.0030853366 0.021631658 0.025520148 0.009187626 0.010448952 0.018407932
0.0055681174 0.00188901 0.0034159957 -0.009626343 0.005171553 0.0032408163 0.008189513 -0.0066125877
-0.0012979776 0.014260425 0.033848576 0.008555007 -0.0082500195 -0.01480478 -0.02335634 -0.035167355
-0.03656313 -0.024453593 -0.022919975 -0.026877927 -0.016644098 -0.0026924103 0.0046750316 0.0009915294
0.003988168 0.0056294645 0.0057177143 0.005401085 -0.0025997148 0.0010389526 0.012382886 0.005687193
-0.0043034856 -0.0022732979 0.024082733 -0.01623634 -0.02599803 -0.009711125 -0.0058876104 -0.004613768
-0.0038904615 -0.002318181 -0.0060382998 -0.00873562 -0.010328621 -0.000363058 -0.008431389 -0.020313371
-0.01734399 -0.0011210857 0.008844675 0.01749406 0.020899983 0.020376319 0.013988897 0.0042423
